train_scripts/log/2021_12_17_1/model.pth (torch, 58321 bytes, 15 tensors)

fc_f.weight f4 [16, 784]
000000 fd d5 a8 39 d7 c6 a1 3c 8a f8 eb bc 71 7c d2 bc
       0.0003220289 0.019748135 -0.028805036 -0.025694104
000010 9d b6 57 bc 3f 91 26 3c 2d e1 f7 b8 33 ce ec 3c
       -0.013166097 0.010166465 -0.0001181982 0.028906917
000020 7b 15 29 bb 3f 7e 24 3c 4b 2e 27 bc 42 b9 d2 bb
       -0.0025800157 0.010039865 -0.010203908 -0.006430776
000030 2e 02 19 3e c0 19 36 3e c5 92 f9 3d 13 54 02 3e
       0.14942238 0.1778326 0.12186197 0.12727384
000040 0d fc 70 3c d0 60 b4 3c 7f 84 c1 bc a7 26 75 bc
       0.014708531 0.02201882 -0.02362275 -0.014962829
000050 df 30 5e 3c c5 c6 f7 3c f0 87 dd bb 67 c3 df 3c
       0.013561456 0.030246148 -0.00676059 0.027314855
000060 0a 51 a9 bb 92 25 8f 3b 5a df 06 3d 6b 4a 05 bd
       -0.0051671313 0.0043684924 0.03292785 -0.032541674
000070 2f 5b b3 bc 19 7b 0a bc 81 6e 5a bc 23 ce 00 3d
       -0.021894066 -0.0084522 -0.01333201 0.031446587
000080 23 a8 25 3e 0a 35 68 3d a5 9b 93 3d c7 91 00 bd
       0.1617742 0.056691207 0.07207421 -0.031389024
000090 04 6b a4 be 9d 3c 1d be 49 dc 8a be a0 5a fd be
       -0.32112896 -0.15355153 -0.2712119 -0.49483204
0000a0 d1 da ff 3c aa d6 6a 3e 50 4b 98 bd 86 fa 20 bf
       0.03123227 0.2293345 -0.0743624 -0.6288227
0000b0 00 00 80 bf 23 3a 45 bf 69 b3 ab be ca 75 5c be
       -1.0 -0.77041835 -0.33535317 -0.21529308
0000c0 51 0f 16 bf 94 33 32 bd 5d e3 bd 3d fe f6 34 bd
       -0.5861712 -0.04350622 0.09271882 -0.044180863
0000d0 c9 e3 71 3c 48 69 b1 3b 69 fe c8 3c 28 70 a7 bc
       0.014763781 0.005414162 0.024535375 -0.020439222
0000e0 c8 63 ed 3b ec 00 de bc ee 6a 25 be 9a 05 74 3d
       0.007244561 -0.027100049 -0.16154072 0.059575655
0000f0 63 55 f0 3d 45 43 54 3d ee f8 80 3d 49 48 e7 bd
       0.11735036 0.051821966 0.062974796 -0.11293084
000100 61 49 c0 3d 1b 55 db 3e 93 b0 8b 3e 5c ac fe 3c
       0.09388996 0.42838368 0.27283153 0.031088047
000110 c7 cd 4f 3e 52 0a 3b 3e 74 dd 34 3e be 91 bb bd
       0.20293342 0.18265656 0.17662603 -0.091586575
000120 c3 b8 a3 be ce 3d 74 be a0 13 57 be e3 c9 b3 3e
       -0.319769 -0.23851702 -0.2100358 0.35114965
000130 1a f2 6c 3e 3b 0a 37 3e 9c fe 20 3d f3 1a 1b be
       0.2313923 0.17874996 0.039305314 -0.15146999
000140 10 70 eb 3d 95 93 b9 3e c7 49 e3 3c 87 82 0f bd
       0.114959836 0.3624541 0.02774514 -0.03503659
000150 da 5b ee 3b 14 d5 b1 bb ff 4e 2b be 79 01 9c 3c
       0.007274133 -0.005427012 -0.16729353 0.019043671
000160 6e 02 8b bb 64 8f c7 bd 96 d4 6d 3e 35 9b a3 3e
       -0.004242233 -0.097441465 0.23225626 0.3195435
000170 82 ab 3a 3e ce 1c 4f 3e 27 e9 96 3d 4a bd 2d 3d
       0.18229488 0.20225832 0.07368689 0.04241685
000180 4b 46 22 3e 16 5a cf 3d e1 c8 36 3d fa 2a d4 3c
       0.15847127 0.101246044 0.044625167 0.0258994
000190 5c b9 80 3e 8a bc 2e 3f 96 b2 76 3f 97 0a 71 3f
       0.25141418 0.6825644 0.9636625 0.94156784
0001a0 ca f8 5e 3f 78 38 07 3f d7 11 95 3e a8 ae c1 3e
       0.8709837 0.5282054 0.29115173 0.37828565
0001b0 0a 23 06 3f 16 2d 20 3f f0 9b 08 3e 19 6f b2 3c
       0.52397215 0.62568796 0.13340735 0.021781491
0001c0 68 36 ad bc 5e e1 01 bd dd 8c 5c bd 5d a9 82 bc
       -0.021144107 -0.031709068 -0.053845275 -0.0159499
0001d0 3b ad c0 3c f7 9b e8 bc 94 04 ba 3e e6 39 68 3e
       0.023520103 -0.028394682 0.36331618 0.22678337
0001e0 cb c7 ad bd a7 a2 1d 3c 41 e6 1b 3e 50 3c b0 3d
       -0.08485373 0.009621299 0.15224554 0.08605254
0001f0 fc f9 dc 3b 2f 29 be 3b ef b8 a4 bc 24 06 58 3b
       0.0067436676 0.0058032493 -0.020107714 0.0032962644
000200 39 db 27 3d 50 74 0c 3b ae ab 85 3d da d8 ea 3c
       0.04098055 0.0021431632 0.06526886 0.028667856
000210 36 ab d0 3d 68 52 82 3d 26 65 34 3d d4 dc 44 3e
       0.10188906 0.06363374 0.044041775 0.19224864
000220 c7 d5 5a 3e ef 33 27 3e ae f6 f1 bd 12 ba fb bd
       0.21370612 0.16328405 -0.118146285 -0.122913495
000230 9a fb 0c 3d bc a0 be 3c 3b 1c d0 3d 0e 7a b9 3d
       0.034419633 0.023270003 0.101616345 0.09056483
000240 06 e7 c7 bd 58 f2 be bd 02 16 4c 3d 52 b4 01 3e
       -0.09760861 -0.09323567 0.049825676 0.12666443
000250 74 71 b9 bd 13 ea f7 3c 92 79 1d 3e 65 09 9e bd
       -0.090548426 0.030262982 0.15378407 -0.077166356
000260 b5 15 0e be 10 c6 36 be b3 3c c4 be 5b 4d ae be
       -0.13875468 -0.17848992 -0.3832756 -0.34043393
000270 be 1a 53 be c7 36 c6 be 6a d6 09 be f4 ab c1 bd
       -0.2061567 -0.38713667 -0.13460699 -0.094566256
000280 8b a7 30 be 4a 53 36 3d 2d 95 f1 bd 12 09 9c bd
       -0.17251413 0.044513024 -0.11796031 -0.076189175
000290 d8 6c df bd 7a d4 ab be 5a 3c 92 be 27 a2 e2 3d
       -0.10909432 -0.33560544 -0.2856167 0.11066084
0002a0 61 40 01 bd bb 3a cb bd 94 14 98 3e c8 d9 a8 3d
       -0.031555537 -0.09923311 0.297032 0.082446635
0002b0 78 a4 7e 3d 74 3b 03 3e 12 c8 a0 3d 8b b0 42 3e
       0.06216857 0.12815648 0.078506604 0.19012658
0002c0 02 30 97 3d 2c c1 6e be b7 a0 0e be 50 3c 3a be
       0.07382204 -0.23315877 -0.13928495 -0.1818707
0002d0 89 1b 84 bd 4e 81 12 be 1c 52 48 be a4 9c 1a bd
       -0.064505644 -0.14307138 -0.19562572 -0.03774704
0002e0 5c 82 d7 bd ed 68 08 be 37 97 82 bd 6f 1b 1a bd
       -0.10522911 -0.13321276 -0.06376498 -0.03762382
0002f0 7f 7e d1 be 29 a7 cc be 9d 25 60 be da b5 8a bd
       -0.4091682 -0.39971283 -0.21889348 -0.06772967
000300 3c 8f 4b be 46 9d 24 bf fb 8c f9 bd 85 7e fa bd
       -0.19878858 -0.6430248 -0.12185093 -0.12231163
000310 3f f0 55 3d 90 94 6e 3d 6c c7 0f 3f 74 1d f0 3d
       0.05223107 0.05824715 0.5616367 0.11724368
000320 b3 2b 3f be 5d ec 01 3c 17 d2 48 bd 52 70 e3 bc
       -0.18669014 0.007929889 -0.049028482 -0.02776352
000330 ea 3d c2 be 53 b2 12 bf a3 30 ee be 44 c1 25 be
       -0.37937862 -0.5730335 -0.46521482 -0.16187006
000340 a2 7b 49 be 5f e9 c9 3c 14 99 17 3e dd 19 f2 3d
       -0.19676068 0.024647413 0.14804488 0.11821339
000350 80 59 13 bd 78 fa 87 bc 60 4c cf bd 85 69 ff bd
       -0.035974026 -0.016598925 -0.10121989 -0.12471298
000360 86 37 b7 be 60 4e 8f be 18 fb 0e be df b0 b3 be
       -0.3578455 -0.27989483 -0.13962972 -0.3509588
000370 f8 80 0f bf a5 43 1d bf c9 1f 7e be 08 a6 a4 be
       -0.56056166 -0.6143134 -0.24816813 -0.32157922
000380 08 04 15 be 54 23 b7 be fe 4d c8 3e 8a 31 be 3d
       -0.14552319 -0.3576914 0.39122003 0.092867926
000390 ab e2 a0 be 8b 7b 6d be 22 83 3f be 66 a8 7a be
       -0.31422934 -0.23191659 -0.18702367 -0.24478301
0003a0 18 d0 d8 be 75 5b ce be bc c7 b1 be f7 e2 e9 bd
       -0.42346263 -0.4030415 -0.34722698 -0.11420243
0003b0 c7 02 84 bd a0 0a ef 3c c3 2d 6b be 4e 9e 9f be
       -0.06445842 0.029179871 -0.22966675 -0.31175464
0003c0 98 59 9a be 2e b1 c0 be a0 39 75 be fe a1 11 be
       -0.3014648 -0.37635177 -0.23947763 -0.14221951
0003d0 ba 07 c4 bc 57 f9 1d be b8 f4 90 be 00 00 80 bf
       -0.023929466 -0.15427147 -0.28311706 -1.0
0003e0 08 5e 7a bf 65 e9 65 bf 8a cd 36 bf bc 30 0f be
       -0.9779973 -0.89809257 -0.7140738 -0.13983434
0003f0 69 31 58 3e 10 8e 97 3e 2a 66 22 3c f4 23 db be
       0.21112598 0.29600573 0.009912053 -0.42800868

bn_f.weight f4 [16]
000000 03 b8 33 40 df 72 2c 40 e4 5c 27 40 47 b3 21 40
       2.8081062 2.6945112 2.6150446 2.5265672
000010 d5 2a 01 40 c6 5f 0c 40 09 4f 17 40 2d 5d 1a 40
       2.0182393 2.1933455 2.364199 2.411937
000020 1e 66 15 40 d1 ba 20 40 ef c9 04 40 18 11 21 40
       2.3343577 2.5114024 2.074825 2.5166683
000030 61 e0 01 40 4d c3 26 40 de 48 24 40 ef 9e 07 40
       2.02932 2.6056702 2.5669475 2.1190755

bn_f.bias f4 [16]
000000 84 ad 91 bf cc 4d e5 be f1 9a 35 3e ea 8e 91 3e
       -1.1381078 -0.44785917 0.17734887 0.28429347
000010 c9 5b 6c 3f ad bb 86 3e 5d de bd 3e e0 10 56 bf
       0.92327553 0.2631506 0.37083712 -0.836195
000020 e2 14 74 bf e2 c7 b5 3c c4 c7 03 bf 81 bc a7 bf
       -0.95344365 0.022190038 -0.51476693 -1.3104402
000030 70 58 03 bf 04 18 cc 3b 08 b4 8f 3f b1 84 94 bd
       -0.5130682 0.006228449 1.1226816 -0.072518714

bn_f.running_mean f4 [16]
000000 6c 8d 21 c0 f4 37 aa 3f 13 3b ac 40 1a 32 8e c1
       -2.5242567 1.3298326 5.382211 -17.774464
000010 c0 b3 71 c0 15 ec c2 c0 8a f8 83 3f 41 98 14 c1
       -3.776596 -6.0913186 1.0310223 -9.287171
000020 0b 1e f6 c0 c0 a3 38 c1 b2 eb 57 bf 73 91 78 41
       -7.6911674 -11.539978 -0.8434402 15.53551
000030 94 2f 1a 41 16 90 d4 40 63 e8 45 40 dd 63 1e c1
       9.636616 6.6425886 3.0923088 -9.899381

bn_f.running_var f4 [16]
000000 06 e0 b9 43 6a ba 9f 43 ce 8d 59 43 de ec 6f 43
       371.75018 319.45636 217.55392 239.92526
000010 ad b8 80 43 6c 17 5d 43 b4 85 56 43 c6 da 93 43
       257.44278 221.09149 214.52228 295.70917
000020 44 53 75 43 83 fb c7 43 40 51 9a 43 87 ee bc 43
       245.32526 399.96494 308.63477 377.8635
000030 44 15 9e 43 cd 88 9e 43 68 55 f8 43 56 ca 87 43
       316.16614 317.06876 496.66724 271.58075

hidden_fc.fc_1.weight f4 [16, 16]
000000 5e 05 d9 be 8c 83 0d bf be a7 d7 3e 1d c3 70 bf
       -0.42386907 -0.5527885 0.42120165 -0.9404772
000010 17 b6 03 be a6 9b 04 3d 18 ca dc 3c 04 92 df 3c
       -0.1286243 0.032375 0.026951835 0.027291305
000020 3d 1a 98 bd 00 00 80 bf 5c d8 6f bd ca 31 7d 3f
       -0.074268796 -1.0 -0.058555946 0.989041
000030 f1 72 d2 3c a4 2f 92 3e e8 ec 7f bf 84 a1 62 bc
       0.025689574 0.28551972 -0.99970865 -0.013832454
000040 3e 8d 17 3f 8d 6c 6d 3f 00 00 80 3f e6 23 2c bf
       0.59199893 0.9274376 1.0 -0.67242277
000050 5f 36 56 be 49 94 73 bf 08 a1 36 bd 1e 21 90 3e
       -0.20919178 -0.9514814 -0.044587165 0.28150266
000060 62 20 0d be f2 22 83 3d 77 26 43 bd e4 8a 9c 3e
       -0.13781884 0.0640315 -0.047644105 0.30574715
000070 88 ee 98 bc de f1 71 bc b6 50 c2 3c 66 e5 1a bf
       -0.018668428 -0.014767138 0.023720127 -0.60506284
000080 a2 8b 7d 3f 3c de b5 3c cb 22 28 3e a6 02 fa 3c
       0.9904119 0.022200696 0.16419522 0.030518841
000090 76 31 1c bb e5 c2 e7 bd 6c b6 58 bf 53 a3 8a 3d
       -0.0023833192 -0.1131647 -0.84653354 0.06769433
0000a0 a7 9f c4 3e 8d 71 7e 3f 4a 01 7f 3f 05 97 2e 3e
       0.38403055 0.99392015 0.9961134 0.17049797
0000b0 c2 4e b2 3e 83 b3 b0 bc 6b 33 07 bc 72 16 ed 3e
       0.34825712 -0.021569973 -0.008252005 0.46306187
0000c0 00 00 80 bf ad 20 ab be 6a 39 10 bd e9 d3 14 bd
       -1.0 -0.33423367 -0.035211004 -0.036334906
0000d0 be 17 3c bf 76 f9 9b 3d 21 4c 1a bf 00 00 80 bf
       -0.7347373 0.0761594 -0.60272413 -1.0
0000e0 93 7e 80 3e cd 46 89 3d b3 70 d2 3e 08 92 11 bd
       0.25096568 0.06702957 0.41101608 -0.035539657
0000f0 39 26 15 bd 88 9b 63 bf 1d 50 69 3f 44 30 51 3d
       -0.036413405 -0.88909197 0.9113787 0.05107142
000100 00 00 80 3f 00 00 80 3f cb 00 06 3d 77 04 92 3e
       1.0 1.0 0.0327156 0.2851903
000110 30 e9 9d 3e 06 66 3e bf f7 d9 3f 3f 9f 29 0f bf
       0.3084197 -0.74374425 0.7494196 -0.55922884
000120 34 52 b9 3d 58 7f a6 3c 26 f2 89 3d d8 19 43 bb
       0.09048882 0.020324394 0.06735639 -0.0029770043
000130 58 44 b3 3d 03 e9 34 bf ce db 4e 3f 3f b9 07 3d
       0.0875327 -0.7066805 0.80804145 0.03313565
000140 5a 8a f5 bd eb 5c 6a 3c 02 48 74 3f 6d 00 bf be
       -0.11989279 0.01430438 0.95422375 -0.37305012
000150 05 19 02 bf 76 90 17 bd 3b be 68 bf 07 e7 b2 3e
       -0.50819427 -0.037003003 -0.9091527 0.34941885
000160 fc 81 20 3d 00 00 80 3f 64 24 8c bd 42 7b c5 bc
       0.039186463 1.0 -0.068428785 -0.024106625
000170 bc 2b 0c be 6d 68 14 be ed dd 20 3f 5a 2d 38 bd
       -0.13688558 -0.1449296 0.6283863 -0.044965126
000180 38 63 79 3f 9f 8f 96 be 52 5b 2f 3f 00 00 80 bf
       0.9741702 -0.2940645 0.6849872 -1.0
000190 57 0e e1 bc 7e 81 ca 3b e7 8b 25 bf 74 78 43 3c
       -0.027472658 0.0061799875 -0.646666 0.011930574
0001a0 18 ff 29 bd fe 46 a8 3d fb 77 f9 3e 5c 66 16 3f
       -0.041503042 0.08216666 0.4872435 0.5874994
0001b0 b3 57 75 3f 98 fa 0d 3f e5 b4 08 bd 1b 0a f7 3c
       0.95836943 0.554605 -0.03337564 0.030156186
0001c0 10 c3 e5 3e 00 00 80 bf 2e d5 a0 be e2 76 41 3e
       0.44875383 -1.0 -0.31412643 0.18893006
0001d0 4b ef ff 3c 0e 72 40 bc ac dd e1 bc 00 00 80 3f
       0.031242033 -0.011745943 -0.027571522 1.0
0001e0 31 39 7f 3f b9 12 7a 3f 6d c2 0e bd af ff 5b 3e
       0.9969664 0.9768482 -0.034853388 0.21484254
0001f0 33 72 23 bd 1a 14 4e bd 00 00 80 bf db 5e 65 bd
       -0.03990383 -0.05031214 -1.0 -0.055998664
000200 d6 c0 7d 3f 00 00 80 bf eb d9 d9 3c 87 db d7 bd
       0.9912237 -1.0 0.02659317 -0.105399184
000210 b1 81 61 3d 8a d8 3b 3d 3a 4d b3 3d c3 d9 19 bd
       0.055055324 0.045860805 0.08754964 -0.03756119
000220 00 00 80 3f 86 bd c8 3c d6 50 0f 3d 00 00 80 3f
       1.0 0.024504434 0.0349892 1.0
000230 5a d2 0f 3d 56 fd a1 be 00 00 80 bf 77 1a 1a bd
       0.035112716 -0.31638592 -1.0 -0.037622895
000240 91 a7 04 bf 27 32 07 3f 3c 07 fe bc 96 13 56 3d
       -0.51818186 0.528109 -0.031009309 0.052264772
000250 96 29 20 3d 6d 52 3a bf 5d 1e 19 3f ba 4d 44 bc
       0.03910216 -0.7278202 0.59811956 -0.011981422
000260 c1 4d b7 3e 5a 73 d8 be 26 93 1c bd 00 00 80 3f
       0.3580151 -0.42275506 -0.03822627 1.0
000270 a1 ce 1c bd 9f 51 65 be 00 00 80 bf 16 99 62 bd
       -0.038282994 -0.22394417 -1.0 -0.055321775
000280 3f 59 2e bf 68 07 77 3f 1a 76 ed 3c 35 51 ee 3d
       -0.6810493 0.96495676 0.02898698 0.11636583
000290 01 1f d9 bc 22 3e 6d bf e5 23 1f bd 00 00 80 3f
       -0.026504042 -0.9267293 -0.03885259 1.0
0002a0 f3 5f db be 19 72 32 bd 96 63 f9 bb 79 15 31 bd
       -0.4284664 -0.043565843 -0.0076107485 -0.04323337
0002b0 00 00 80 bf f6 cc 31 bf 4e 24 a0 be 0f 73 77 3e
       -1.0 -0.6945337 -0.31277698 0.24164985
0002c0 00 00 80 3f f4 ad 4a 3d 8f 55 4d bd ee e3 d4 3e
       1.0 0.0494823 -0.050130423 0.41580147
0002d0 0a a2 6b 3f bb 25 2f 3d 24 a8 34 3d 84 78 be 3e
       0.92044127 0.042760592 0.044105664 0.3720132
0002e0 7e 48 6c bd 81 1e eb be a9 7b 4f 3f 42 c0 5a bc
       -0.05768632 -0.4592171 0.81048065 -0.013351502
0002f0 7e bd 31 3f d8 eb 68 3e 33 6a 91 bd 73 52 28 3f
       0.6942977 0.22746217 -0.07100334 0.6575081
000300 9b d0 0b 3e 9e 58 89 3d c3 d1 53 bd b1 8d 02 3c
       0.13653795 0.067063555 -0.051713716 0.007968352
000310 72 f3 4b 3e 70 3c ba be dc 5c 0f 3d 00 00 80 3f
       0.19917086 -0.36374235 0.035000667 1.0
000320 78 e1 29 bd 55 10 68 be 25 f0 e4 3d 00 00 80 3f
       -0.04147479 -0.2266248 0.111786164 1.0
000330 66 39 08 bd 8c 71 cc 3e 60 f7 7f bf 0f 5a 11 3f
       -0.033257864 0.3993038 -0.9998684 0.56778044
000340 19 6b c7 3c 76 33 28 3f b1 b2 79 3f 2f 63 a4 3c
       0.02434306 0.65703523 0.97538286 0.020066826
000350 04 72 91 bd 93 44 1d bf 94 2b 3f bf 55 a5 9f bd
       -0.07101825 -0.6143276 -0.7467587 -0.077952065
000360 19 6f a4 bc 0d 42 0d bd 7c b1 7e 3f 5f 2f c1 3d
       -0.020072507 -0.03448682 0.9948957 0.094328634
000370 8e 0c c5 3e 1f 8f 7e bd 15 15 90 3c b7 53 7f 3f
       0.3848614 -0.06214821 0.017588178 0.99737114
000380 85 ed 7f 3f 77 14 a3 3e 60 9b 7e 3f 82 83 77 bf
       0.999718 0.3185155 0.99455833 -0.9668504
000390 f2 e7 39 bd 25 ee b2 bd e8 03 04 bd 50 14 b6 bd
       -0.045387216 -0.08736829 -0.032230288 -0.08890593
0003a0 6f 11 c0 be 23 50 b4 3c 0f c2 59 be 71 b5 13 bd
       -0.375133 0.022010868 -0.21265434 -0.036061708
0003b0 f0 0f 04 3c 89 74 09 3f 86 2c 0b 3f b3 03 e0 be
       0.00806044 0.53693444 0.5436481 -0.43752822
0003c0 00 21 63 3f c6 7c 24 3f 0e 04 8e bd ba cf 32 bf
       0.8872223 0.6425289 -0.06934367 -0.69848216
0003d0 32 21 f7 bc 5b 1f 37 bb c1 f6 59 3f 3e d0 00 bf
       -0.030167196 -0.0027942273 0.8514214 -0.5031775
0003e0 00 00 80 bf 00 00 80 bf e6 06 fa 3b 36 e2 c4 3e
       -1.0 -1.0 0.007630217 0.38453835
0003f0 e8 2d cc bc 0e b8 d9 bc f0 a1 41 3c 83 41 11 bd
       -0.024924234 -0.026577022 0.011818394 -0.035462867

hidden_bn.bn_1.weight f4 [16]
000000 02 9a 03 40 51 bf f7 3f 16 9e f5 3f e9 9c fd 3f
       2.056275 1.935526 1.9188869 1.981351
000010 6b 61 0c 40 db 05 f8 3f c8 32 f2 3f 17 38 d5 3f
       2.193446 1.9376787 1.8921747 1.6657742
000020 10 cd d3 3f 19 79 d1 3f 49 da d1 3f 37 82 03 40
       1.6546955 1.6365081 1.639474 2.0548227
000030 6d 8a 01 40 6a 3e ec 3f 25 8e e0 3f b3 ad cd 3f
       2.0240738 1.8456547 1.7543379 1.6068634

hidden_bn.bn_1.bias f4 [16]
000000 0a 6c a7 3e 40 46 da 3e 01 fa 30 bf 1e c8 a5 3e
       0.32699615 0.42631721 -0.69131476 0.3237924
000010 09 3b c2 3e 15 bd 98 bd 76 34 af 3e 5f e1 b8 3d
       0.37935665 -0.074579395 0.34219712 0.09027361
000020 b5 90 73 bd ab 6d f1 3e f7 0b 2e bd 9d 0f b1 3e
       -0.059464175 0.47153983 -0.04249188 0.34582224
000030 c7 0d b9 3e d6 e7 e4 3e 25 97 33 be da 4d a2 be
       0.36143324 0.44708127 -0.17538126 -0.3170002

hidden_bn.bn_1.running_mean f4 [16]
000000 22 2a 42 be 72 4e 1c bf 79 42 ca bf df 7e c4 bd
       -0.18961385 -0.610572 -1.5801536 -0.09594511
000010 3a 76 f7 bd a7 8b a3 3e cd 3e 5b bf e2 7d 2b bf
       -0.12083097 0.31942484 -0.856427 -0.66988957
000020 2f 78 00 bf 5a 54 cf be 9e 2c 0a 3e 9c 14 dd be
       -0.50183386 -0.40494043 0.13493583 -0.43179786
000030 7d 10 5a bf 2a fc a6 bf d3 11 a5 3e 44 f1 c9 be
       -0.8518141 -1.3045704 0.3224016 -0.39441884

hidden_bn.bn_1.running_var f4 [16]
000000 75 f9 ae 41 3b 35 af 41 7c 23 c7 41 1d a9 cc 41
       21.871805 21.900991 24.892326 25.582575
000010 1f f6 ae 41 fd a4 b2 41 bb 90 aa 41 61 2b 7c 41
       21.870176 22.33056 21.32067 15.760591
000020 3b 1b 58 41 40 f2 40 41 57 14 5d 41 55 65 d6 41
       13.506648 12.059143 13.817466 26.799479
000030 ac 75 c7 41 5e ce 98 41 e0 6d b2 41 da 84 8c 41
       24.932457 19.100765 22.30365 17.564869

fc_l.weight f4 [10, 16]
000000 bf 74 71 bf 11 8a 7d bf 69 09 cb be 29 1a 01 3e
       -0.94318765 -0.990388 -0.39655617 0.12607636
000010 9e 70 ca 3d 4b fc b0 bd 64 cf 29 bf c8 37 af be
       0.09884761 -0.08641871 -0.6633208 -0.34222245
000020 3a 29 6e bf 7d b5 26 3d 87 2c 45 3f 00 00 80 3f
       -0.93031657 0.040700424 0.7702107 1.0
000030 21 01 38 3d 47 c8 78 3f 5e 96 df bd b4 55 0b 3d
       0.04492295 0.971806 -0.10917352 0.03401728
000040 68 0f 79 3e c1 45 a6 3e 00 00 80 3f 92 de 5c 3f
       0.24322283 0.32475093 1.0 0.86277115
000050 25 85 7a bf b9 f2 38 3e 58 44 a8 3e 82 dc d2 3c
       -0.9785941 0.18061341 0.32864642 0.025739912
000060 b2 c1 2b 3d 97 47 84 3d 02 2f 74 3e 66 a1 d5 be
       0.04193277 0.06458967 0.23846057 -0.417247
000070 30 b7 15 bc c2 23 74 3d 03 02 1d bf d7 46 4d bf
       -0.009137914 0.059604414 -0.61331195 -0.8018622
000080 bf 59 19 bf 0a a5 7e bf 00 00 80 3f 54 a0 7c 3f
       -0.59902567 -0.9947058 1.0 0.9868214
000090 95 e8 11 3d 67 24 10 bd 17 c2 11 3f c4 59 fc bc
       0.035622198 -0.035190966 0.5693678 -0.030804522
0000a0 35 10 19 3d c9 13 47 bf 73 73 6a bd a5 ee c7 3e
       0.03736897 -0.77764565 -0.057239007 0.3904926
0000b0 d5 4c 0b be 71 44 41 3f e9 f5 04 be a1 1c 1a be
       -0.13603528 0.7549506 -0.12984432 -0.15049984
0000c0 5e fa 69 bd 57 49 3d bc fb ba ca be c4 51 43 3d
       -0.057123534 -0.01155313 -0.3959578 0.0476854
0000d0 f1 41 ee 3e 32 fa 9c 3e c6 aa 4f bf 0a f3 e0 3e
       0.46534684 0.30659634 -0.81119955 0.43935424
0000e0 7a c0 e1 3c 61 7f b9 3d 6b dd 2e be 00 00 80 bf
       0.0275576 0.09057499 -0.17076652 -1.0
0000f0 00 00 80 bf c2 d0 6e bf e6 1f 38 bd ac 75 59 be
       -1.0 -0.9328729 -0.044952296 -0.21236295
000100 18 2f 17 3f e3 94 73 3f f2 1f 1b bd 00 00 80 bf
       0.59056234 0.9514906 -0.037872262 -1.0
000110 59 56 d5 3d d5 e3 37 bf cd ad 7f 3f 77 39 7c bc
       0.1041686 -0.7183202 0.99874574 -0.01539456
000120 32 57 49 3f 10 10 a7 3d de f6 2a be 8b 0a 29 3d
       0.78648674 0.081573606 -0.16695735 0.04126982
000130 ed dc bc 3e f7 c4 ab 3e 42 94 de 3e ad 80 a4 3e
       0.36887303 0.3354871 0.43472487 0.32129422
000140 3d 6e a1 bc 9b 95 c7 3d a6 b7 6a bd 18 46 a0 3c
       -0.019705886 0.09745332 -0.057304047 0.019564673
000150 ac 74 42 3f 00 00 80 3f 00 00 80 bf 1b 1d 6d be
       0.7595928 1.0 -1.0 -0.23155634
000160 8c 23 51 bd 3e c1 1e 3f a3 bd 18 3d 1d 9a 7e bf
       -0.05105929 0.62013614 0.037290227 -0.9945391
000170 26 15 11 bf 87 f8 59 3d 11 94 6c 3e a5 9a 02 3e
       -0.56672895 0.05321553 0.23103358 0.12754305
000180 00 00 80 bf 00 00 80 3f 51 5c 73 3f 51 8f 7d bf
       -1.0 1.0 0.9506274 -0.9904681
000190 00 00 80 3f 09 76 1c bc d1 d2 92 3d fb 24 c4 bc
       1.0 -0.009549626 0.07169116 -0.023943415
0001a0 f5 2b 13 be 25 31 69 be 3c a4 2b 3c f1 50 6e 3d
       -0.14372237 -0.22772653 0.010476168 0.05818266
0001b0 19 df 0a 3f bc a9 7c 3e 56 94 57 3f da 98 1e bd
       0.5424667 0.24674124 0.8421072 -0.03871999
0001c0 82 f6 b3 3e e1 ac 01 bd 89 a0 68 bd 9d fc fb bd
       0.35149008 -0.03165901 -0.056793723 -0.123040415
0001d0 af 16 5c bf 37 1e 08 bf 17 8a d4 be f4 dd bf 3e
       -0.8597211 -0.53171104 -0.41511604 0.37474024
0001e0 7d 93 55 bc 22 1f 69 3d 5d 0b c9 3d 3d be 03 3f
       -0.013035652 0.056914456 0.098166205 0.51462156
0001f0 c3 4e f9 3e 00 00 80 bf ba f2 55 bf c8 fc e2 be
       0.48692903 -1.0 -0.83573496 -0.44333482
000200 d8 5a 06 3f be ca 20 3c 7d ea 64 bf 21 07 41 3f
       0.52482367 0.0098139625 -0.894203 0.754015
000210 8e b6 43 be 56 ec e5 3d 1d f1 e3 3e d1 3f 27 bf
       -0.19112608 0.11226718 0.44519892 -0.6533175
000220 79 85 26 bd 6f 42 83 be 54 9e 90 bd 7a 17 d5 bd
       -0.040654633 -0.25636622 -0.07061449 -0.104048684
000230 66 a1 6e bf 09 1b 69 bd a6 06 13 3f 59 61 c4 be
       -0.93215024 -0.05691055 0.5743202 -0.3835552
000240 94 2a 02 3f b9 62 02 3f 47 3b 4f bf d5 84 13 bf
       0.5084622 0.5093189 -0.80949825 -0.5762456
000250 8b 6c 4a bf e2 2e 81 be c4 38 19 3d a4 39 44 3e
       -0.79071873 -0.2523108 0.03740765 0.19162613
000260 84 b7 bc 3d 1f d7 0c bc ee 5d 7f bf ad ab 53 3d
       0.0921469 -0.008596211 -0.997527 0.051677395
000270 de 8c df 3d d0 fe 24 bf 24 5c 8c 3c 43 91 ad 3e
       0.1091554 -0.64451313 0.01713378 0.33899888

bn_l.weight f4 [10]
000000 a2 71 17 40 5f eb 19 40 df 48 fc 3f 9f b5 ed 3f
       2.3663106 2.404991 1.9709738 1.8571051
000010 8b 73 14 40 23 75 d8 3f 26 b5 13 40 f9 dc 0d 40
       2.3195522 1.6910747 2.3079314 2.216612
000020 b7 9f c9 3f d4 d1 0c 40
       1.5751866 2.200307

bn_l.bias f4 [10]
000000 b7 8f 06 bf a2 5d c8 be 0c d2 17 3e 9e 9c 7e 3e
       -0.5256304 -0.39133936 0.1482622 0.24864432
000010 1c 0f da bd f3 10 ab 3e dd 14 ee be bf 00 20 bd
       -0.10647413 0.3341137 -0.46500292 -0.03906321
000020 af e9 02 3f 18 60 14 3e
       0.5113782 0.14489782

bn_l.running_mean f4 [10]
000000 68 8c 58 3f df 58 39 3f 78 34 b4 3d 55 60 15 3e
       0.8458924 0.7240123 0.0879907 0.14587529
000010 43 18 72 3f b6 fc 9d 3e 9c fc 99 3e 9a dd 00 3f
       0.9456827 0.30856866 0.30075538 0.5033814
000020 b8 fd cc bc 9e 45 92 3e
       -0.025023326 0.2856874

bn_l.running_var f4 [10]
000000 b3 af fb 41 00 f4 bf 41 9e a4 cf 41 4e c5 e6 41
       31.46079 23.99414 25.95538 28.84634
000010 62 73 e5 41 18 da a9 41 2d e9 bd 41 bd 6a f3 41
       28.68134 21.231491 23.738855 30.427118
000020 2f cf bd 41 b4 57 05 42
       23.726164 33.335648
